tmp.ckpt (torch, 79271 bytes, 8 tensors)

features.0.linear.weight f4 [128, 16]
00000000: 2f44 4abe df27 0bbe 1605 7bbe 4d39 8f3e
00000010: 6aba 473e 51a6 2ebe 75e8 053f d754 763e
00000020: b5b1 453e 8d21 1d3c 2c5d 253e c371 05bd
00000030: 1be1 83bd 9d13 95be f333 ec3d 37c7 a7bd
00000040: 926e 18be 8dd6 3cbd dc30 14be b156 22be
00000050: 2696 f43b 6388 793d 7887 0ebe 3389 c63e
00000060: 2392 17be 0e06 1c3e 7713 8abd 3b95 893e
00000070: 57b8 e93d 4e8b c93c 147e b03d 184f 2b3e
00000080: ca81 2cbe 762f 493e 84ff 51bd 0c74 993e
00000090: 3ba4 373e 2886 05be 7543 b93d fd49 b83e
000000a0: 4b13 17bd bdca d0bd f446 803e 3716 0d3e
000000b0: 8c51 1ebd 7ad4 2dbe 48ef a33e 03df e43d
000000c0: fdd5 1a3e 5ecf 96bd 4f7a 6a3c 5c30 943d
000000d0: 7c3f 723e f334 903d 69e6 4e3e ac15 e13e
000000e0: 04db 10be 447b 25bd 08c5 99bd f669 9a3e
000000f0: cf9d 41bd 7750 6bbe 0662 de3d e5b7 d23e
00000100: c5ae 5ebe 8aa3 46be ea82 77bd 5009 a73c
00000110: 3c61 5e3c f569 713e 693a 63bd b518 c23e
00000120: 7b37 573e 3dc1 72be 2b26 6a3e 471d 073e
00000130: 4ded a6bd 348a f93d 0f12 96bc a648 a33e
00000140: 10d0 a1bc bc48 b8bc e298 7c3d 13b8 483d
00000150: bb5d 2f3b a490 193e 1a66 f53d a170 003f
00000160: 5225 5c3e 17ed 53be 33af b93d 6de1 07be
00000170: 0095 53be ec32 aabc 3df4 20be 05a9 ac3e
00000180: fa89 29be c043 84be bc90 ff3c c4be 593c
00000190: f4e9 25bd 9664 233c c640 3e3d db93 d83d
000001a0: f110 713e e8e1 50be 6863 08bc 4ddf ebbd
000001b0: beba 093d 81fd ea3d 004f 46be fe36 e43d
000001c0: d403 6b3e 8487 15be 0e8d 35be 923f d1bd
000001d0: 4083 febd 6044 053e ac02 2e3d 5062 b3be
000001e0: 027d b63c 0555 60be c764 143e 3f6b 623e
000001f0: 1b99 17be ba8b 7d3e 7c88 d5bd c6ec 4bbe
00000200: 3db0 f83d 02d6 37be ca3d 53be 76d7 4c3c
00000210: 6221 493e 4955 d93a 03fc 37bd f20c a03e
00000220: 1345 4bbe e34a 70be 1f84 febd 2701 e53d
00000230: 2037 9b3e dd22 703e 97c7 66be 614a 773e
00000240: 9a8a 133e 15e7 0cbe 9a2b 84bd bb21 3e3e
00000250: aa23 953e ab7b 063e 3c27 e8bd 4c14 253e
00000260: 19f4 34be 6a30 253e a976 e0bd b86f 6e3e
00000270: 4424 333e bd74 a23d 822b cbbe da29 4c3e
00000280: fb1f 0b3e f333 febd 2124 08be 584a d33e
00000290: bb64 3ebe 01e0 5fbe e102 483e bb7f d3be
000002a0: 9fd0 05be 7356 073d 3d9d a53d d698 5e3e
000002b0: 4b26 033e 4bcd 8abe 7b07 b83e 0db9 53bc
000002c0: fcf2 243e d3fd a33d 4f1a 453e ce26 6dbd
000002d0: a42d 733d fda6 43be 60f9 4bbe 6643 823e
000002e0: e086 783e 9dbe ce3d f113 a0bd 5dab 0f3e
000002f0: 4bf6 0ebe 1554 debd 455e 74be b987 963e
00000300: 8d4f 11be 4462 883d 175a 22be 4ff4 fcb9
00000310: a2a2 36bd e61c 603e b026 133e 02cc 03bb
00000320: 1180 36bc 21e0 833e df85 23be 29dc 313e
00000330: fbeb 29be 881f 46be 0ae6 0e3e c50a 833e
00000340: 28e2 753e 8834 423c e0cf 32be 0eee 0a3e
00000350: 18cf 47bc ef82 663c 4ff1 413e e60b c5be
00000360: b975 02be ca02 e23d b455 13bd ebac 413e
00000370: 5432 a23d aedd 573e 7d54 1c3e 3512 b5bd
00000380: a00c 4f3e 75cf 5cbe dcc1 08be 3c00 ecbc
00000390: 5b2b 29be 4ef5 503e f59b 5bbe 09b7 c63e
000003a0: 665b 3bbe 5578 df3d b720 fb3c 3eee 563e
000003b0: cc57 5e3e f76f e73d 5d5d 42be 4744 ea3e
000003c0: 9723 20be a9d0 19bd 0e17 1e3e 136c 163d
000003d0: 7966 593e 0542 38be 42ab 1c3f 03d8 80be
000003e0: 6770 8b3d 9918 5fbe 8029 04bd 5ce9 c13e
000003f0: 5280 963d bdbc a5be 613d c33e a1b7 373e
-0.19752572 -0.13589428 -0.24513659 0.27973405 0.19504705 -0.17055632 0.52307826 0.24055801
0.19306071 0.009590519 0.16148823 -0.032579195 -0.0643942 -0.29116526 0.11533346 -0.08192294
-0.14885929 -0.04610305 -0.14471763 -0.15853383 0.007464188 0.060921084 -0.13918865 0.3877655
-0.1480184 0.15236685 -0.06741994 0.26871666 0.11412113 0.024602558 0.086177975 0.1672939
-0.16846386 0.19647011 -0.05126907 0.2997135 0.17933743 -0.13039458 0.090460695 0.3599395
-0.036883634 -0.10194919 0.25054133 0.13778006 -0.038651988 -0.16975585 0.32018495 0.111753486
0.15120693 -0.07363771 0.014311387 0.07235786 0.2365703 0.07041349 0.20205082 0.43961847
-0.14146048 -0.04040076 -0.07508284 0.30158967 -0.04726964 -0.22979914 0.1085854 0.41155925
-0.21746357 -0.19398323 -0.060427584 0.020390183 0.013572987 0.23575576 -0.055475626 0.37909475
0.21017258 -0.23706527 0.22866122 0.13194762 -0.0815073 0.12184563 -0.018319158 0.31891364
-0.019752532 -0.02249562 0.061669238 0.04900367 0.0026758749 0.14996582 0.11982365 0.5017186
0.21498612 -0.20695911 0.0906662 -0.13269587 -0.20662308 -0.020776235 -0.1571817 0.33722702
-0.1655654 -0.2583294 0.031196944 0.013290111 -0.04050632 0.009972712 0.04644849 0.10575076
0.23541619 -0.20398676 -0.008324482 -0.115172006 0.033625357 0.11474133 -0.19366074 0.111433014
0.22950679 -0.14602476 -0.1772959 -0.10217203 -0.12427378 0.13014364 0.042483017 -0.35035944
0.022276405 -0.21907432 0.14491569 0.22111224 -0.14804499 0.24760333 -0.10426423 -0.1991454
0.1214299 -0.17952731 -0.2062904 0.012502542 0.19641641 0.0016581203 -0.04491807 0.31259876
-0.19850568 -0.23466067 -0.12427544 0.111818604 0.30315495 0.234508 -0.22537075 0.24149467
0.14408341 -0.13760026 -0.06453629 0.18567555 0.29128772 0.13133113 -0.11335608 0.16121024
-0.17671241 0.1613175 -0.10960133 0.23284805 0.17494303 0.07932422 -0.3968163 0.1993784
0.13586418 -0.12412252 -0.13295032 0.41267657 -0.18593113 -0.21862794 0.19532348 -0.41308388
-0.13067864 0.03304143 0.080866314 0.2173799 0.12807576 -0.2710975 0.35943207 -0.0129225375
0.16108316 0.080073975 0.19248317 -0.057898335 0.0593697 -0.1910667 -0.19919348 0.25442046
0.242702 0.1009495 -0.078163035 0.14030214 -0.13961141 -0.10855881 -0.23864086 0.29400423
-0.14190502 0.06659368 -0.15854679 -0.0004824721 -0.044588692 0.21886024 0.14370227 -0.0020110612
-0.011138932 0.25756934 -0.15969037 0.1736914 -0.16593926 -0.19347966 0.1395494 0.25594154
0.24012053 0.011853345 -0.1746211 0.13567373 -0.012195371 0.014069303 0.18939708 -0.3848564
-0.1274022 0.11035688 -0.035970405 0.18913619 0.079197556 0.21080658 0.15266605 -0.08841363
0.2021966 -0.21563514 -0.13355201 -0.028808706 -0.16520445 0.20406076 -0.21446212 0.3881152
-0.18296584 0.109116234 0.030655248 0.2098932 0.2171318 0.113006525 -0.18980928 0.45755216
-0.15638576 -0.03755251 0.15438482 0.03672416 0.21230496 -0.17993934 0.6119882 -0.25164804
0.068085484 -0.21786727 -0.03226614 0.37873352 0.07348694 -0.32370558 0.38132766 0.17941143

features.0.linear.bias f4 [128]
00000000: e744 803e a6f6 8d3e 3f0c 673e bde0 96bc
00000010: 8951 8dbc e663 793d 279e 0e3e e13a c53d
00000020: 1c7c 703d fcc2 113e dc2d 203e 7207 fb3d
00000030: a7e3 393e 8cc7 883e 0b31 4e3d 7834 473c
00000040: 6a5c 8a3e 4123 a9bd 5505 a53d c5b0 f5bd
00000050: 5c99 843e 73b5 c3bd 53af 23be cb01 f03d
00000060: a46d 2a3e 5371 bfbd 4bf8 f7bd 6196 e83d
00000070: fd17 8e3e 6fb4 c2bc da7e 41bd d907 453e
00000080: b0c7 613e cd3d c03d cc58 913e 2522 7f3e
00000090: 268f 9cbd fd2b a7ba b8b5 963e 520e 313e
000000a0: 00c1 06be 178c 5ebe 2820 40bd 2fc6 24be
000000b0: 119a cc3c 94f1 513e cc74 d33a 155f 43be
000000c0: 96f5 f0bc 9d99 4c3e 8c4e 11be 690d 84bd
000000d0: 7bf4 4ebd f710 013d 093a f13d 4ac2 423e
000000e0: ede1 8c3a 6105 73be a63e f2bd 41eb 933d
000000f0: cc1a 4dbe f57d 683d c932 383c caec e0bd
00000100: 6766 71bd b2d2 933e a55c 3ebe 4c77 233e
00000110: 487a c7bd f8b4 dc3d 096f e23d 87ca c8bd
00000120: e280 4abe 2184 133e 1a1e 883e ceb9 58bd
00000130: cad0 2dbe cfd3 3b3e 5275 61bd 8741 003d
00000140: 6525 d4bc fc96 a63c c241 613e 171c 423e
00000150: d440 713e 66c5 e93d 8568 04be 2989 c6bd
00000160: a8bf e53d 0d2b 95bd 9132 e93d 1de1 a43d
00000170: fcf1 02be 07f2 2f3d 9cf3 60be 44ed 90bd
00000180: 7901 833e c1d5 4ebe 2645 943c 0d6e 8a3e
00000190: e938 b93d 8b94 98be 961a 22be 7003 0dbd
000001a0: 5563 87be d0c2 273e 1c15 1abe f795 08bd
000001b0: ebee 8e3e 1636 3bbd 152f 403e efaa 543e
000001c0: dbb9 77be c8ed 70bd 451b 553e 13c1 cb3d
000001d0: 13c0 aebe 7c2d 37be f996 5ebe 4c38 423e
000001e0: 99f3 98bd 5e70 bebd 3490 51be 5371 2c3e
000001f0: 0c32 243c f7b7 f7bc afa7 903e dfcf d93d
0.25052568 0.2772724 0.22563265 -0.01841771 -0.017250793 0.060886286 0.13927518 0.09630371
0.05871211 0.14234537 0.15642494 0.122572795 0.18153249 0.26714742 0.05033974 0.012158506
0.2702363 -0.08258677 0.08057658 -0.11996607 0.25898254 -0.09556093 -0.1598485 0.11719092
0.16643387 -0.09347787 -0.12107905 0.113568075 0.27752677 -0.023767678 -0.047240116 0.19241275
0.22048831 0.093867876 0.2838806 0.24915369 -0.07644491 -0.0012754198 0.29435515 0.17290619
-0.13159561 -0.21733128 -0.046905667 -0.16091226 0.024975808 0.20502311 0.0016132831 -0.1907924
-0.02941398 0.19980474 -0.1419012 -0.0644787 -0.050526123 0.03151032 0.117786475 0.19019428
0.0010748483 -0.2373252 -0.118283555 0.072226055 -0.20029753 0.056760747 0.011242577 -0.10982664
-0.05893555 0.28871685 -0.18590029 0.15963477 -0.0974012 0.107767045 0.110563345 -0.09804254
-0.19775727 0.14405872 0.26585466 -0.052911572 -0.16974178 0.18342517 -0.055043526 0.03131249
-0.025896737 0.020335667 0.21997741 0.18956028 0.23559886 0.11414604 -0.12930496 -0.0969413
0.11218196 -0.07283602 0.11386598 0.080507495 -0.12787622 0.042955425 -0.2196793 -0.07076505
0.2558706 -0.20198728 0.018099379 0.27037087 0.09044058 -0.2980083 -0.15830454 -0.034427106
-0.26442972 0.16382909 -0.15047115 -0.033346143 0.27916655 -0.045705877 0.1876796 0.20768331
-0.24191992 -0.058820516 0.20811184 0.09948935 -0.34130916 -0.17888445 -0.21737279 0.18966788
-0.074683376 -0.09298776 -0.20465165 0.16840105 0.010021698 -0.030239088 0.28252932 0.106353514

features.1.linear.weight f4 [128, 128]
00000000: 610b b2bc c0fe 043e 8a17 233c 8b2d d83c
00000010: 2dea 7b3c 14eb 9d3d 8af7 0dbd 502b 7f3d
00000020: d458 383d f6d0 063e 1e8e fdbd 8ca5 993d
00000030: 2445 be3c 5b2e 01be 69cd 393d 7a17 f23a
00000040: 98ab 3a3d 7773 213b 333d 7c3c 0ad0 d8bc
00000050: 1953 1abd aeac e93d dedf 323d dc68 3a3d
00000060: f5d0 bfbc c834 e6bc 43c8 8abd aab6 003e
00000070: a229 da3c 0afd 013d 62f3 563d c56f 54bd
00000080: 3d8f cebd 3c81 a3bd c64f 1abc 8f54 7e3d
00000090: d8aa 38bd 9905 803d c7e2 3abc 6aea 31bb
000000a0: 06b8 5e3c 7f5b a9bb 283e 1d3d df5a acbd
000000b0: 3dd9 83bd 9e14 813a 949f 5abd 81ca a73c
000000c0: bbf6 9c3c 0ae5 b33b 60e1 d53d 4682 1a3d
000000d0: e67a 2cbd d810 ccbc 07c1 94bd c6c4 9bbd
000000e0: f30b 90bd dc49 c4bc 9f38 b5bc 9d40 4ebe
000000f0: a0a3 0d3e ae63 98bd b5d1 653d e5b8 c43d
00000100: 9313 30bd 8fd2 89bd 6434 013d 9b31 05bd
00000110: 9cde d7ba 12c4 083d 7cef 133d 08a1 42bd
00000120: a793 b73d 7fea 50bc c67e b0bc 3920 a6bd
00000130: 69c6 9fbd 0dab bf3d 93db 7fbd cd6b c53d
00000140: 36a6 7ebd dc0e ab3d 4585 073d ed0e 6ebd
00000150: 2e25 833d 6890 0f3c a4fd 15bd cea3 c63d
00000160: 3046 b63d 7490 f33d c25d 933d afef a8bd
00000170: 66e2 56bd ffac 25bd 92b3 3cbd 2c23 69bd
00000180: aeb7 89bc 6b7b 753d 332a 393c 3ea0 a13d
00000190: a76d b73d 2522 bc3c 93ec 8fbd 391e 1abd
000001a0: 0750 9cbd e3e7 7a3d eda7 b63d 4d59 5c3d
000001b0: db0e 953c 1363 8c3c 12e2 94bd f677 983d
000001c0: eeb5 a23c 532b 613c faf4 a9bd c506 363c
000001d0: 7dd4 dbbd bd41 2abd 79e9 fcbd 4718 48bd
000001e0: bb17 2fbd 6eac 0cbd 64a9 1f3d edd0 a13d
000001f0: 197f bd3d ed52 c33c a164 853d be0b ce3d
00000200: 3387 abbd 1894 26bd 700b 98bc e73c b43c
00000210: b46a d3bc a757 4d3d 76b7 94bd 86ed fe3c
00000220: e2ff 40bd 58eb b73c f945 87bd a54a 913d
00000230: 67e8 8f3d ce10 8d3d ea40 aebd e2e7 063d
00000240: fb50 85bd 4833 f7bc a4e9 443c e1c0 953d
00000250: 9f0a 5e3c 25d6 823d 5477 b23d a8ff a73d
00000260: 35e0 06bc bc6e 553c 5fd7 8fbd b53f 4fbd
00000270: ee4f 20bd f0fc d03b 9645 9cbd 1f95 51bc
00000280: 4c62 7ebd f44b 6a3b 285d 423d 1025 0c3d
00000290: 0ab1 b4bd a107 a2bc 11e4 b53c 46ef 9ebc
000002a0: 6eca 14ba 5e51 8a3d 1a58 b83c e30b 0bbd
000002b0: 3a0c 95bd b407 28bd 5e60 a93d bc49 933d
000002c0: cfab 9abd f8a1 fe3c 9541 86bd bb8e 09bd
000002d0: 7381 bcbc 2ad6 8ebd c4d6 58bd c8c8 683d
000002e0: d2d8 1cbd 1b84 813c 1b4f 92bc d7d7 8c3d
000002f0: 1474 a7bd e432 17bd 8d9f a1bc 6a4d 51bd
00000300: 94ac 02bd 9dcd 643d 7f85 47bd 6285 aabd
00000310: 10d0 80bd 0261 f63c 9511 76bd abe0 79bc
00000320: bf45 793d 9899 4cbd d906 333d ea0a 473d
00000330: f9db 823c 83c7 09bd 8c3d 343d 4cc0 0e3d
00000340: 4312 a0bd 8a1e 48bd 0607 9abd ed45 2a3d
00000350: 5726 903d e70f 9fbd 82bc 8cbd 539c 79bd
00000360: 92b6 473d abde 1c3d 3238 c53d d899 01bd
00000370: 2e47 a7bc 513f 953c a5bd 193d 4a0a babb
00000380: 533a 83bd 008c 18bd 84f8 9cbd 1ac5 96bd
00000390: d6e4 70bd c911 363c 0125 aebb 7716 98bd
000003a0: bcc0 c63b b34e 24bd 5d8d 22bd ae6b 9abc
000003b0: e547 873c 67ad f03c 9d74 0c3d 5091 f8bc
000003c0: f626 82bd c16c 4b3d 7362 9abc c2b7 1cbd
000003d0: 73c9 8d3d 2a3d 46bd 3fca f33c a49c 84bd
000003e0: a353 9fbc 0aee 833c bf4e 673d 0470 cfbc
000003f0: 68b8 c3ba 5c2b fdbb bbf1 59bd df1a 35bc
-0.021733942 0.12987804 0.009954343 0.026388904 0.015375656 0.07710853 -0.0346599 0.062297165
0.045006588 0.1316565 -0.12380622 0.07502279 0.023226328 -0.1261534 0.04536191 0.0018470131
0.0455738 0.0024635473 0.01539545 -0.026466388 -0.037676904 0.11409889 0.043670528 0.045510158
-0.023415068 -0.02810134 -0.06776478 0.12569681 0.02663118 0.031735457 0.0524782 -0.051864404
-0.10085914 -0.07983634 -0.0094184335 0.06209236 -0.045084804 0.06251068 -0.011406607 -0.0027147778
0.013593679 -0.005168378 0.038389355 -0.0841577 -0.06437919 0.0009848063 -0.05337484 0.020482304
0.019160619 0.00548995 0.104433775 0.037721895 -0.042109393 -0.024910375 -0.072633795 -0.07605891
-0.07033529 -0.023961 -0.022121726 -0.20141836 0.13831949 -0.074408874 0.056108195 0.09605578
-0.042987417 -0.06729614 0.031544104 -0.03251801 -0.0016469541 0.033390112 0.036117062 -0.047516853
0.08963709 -0.012751221 -0.021544825 -0.08111615 -0.078015156 0.09358797 -0.06246526 0.09639702
-0.06217023 0.083524436 0.03308608 -0.058119703 0.06403576 0.0087624565 -0.036618844 0.09699212
0.08900106 0.118927866 0.07195617 -0.08248841 -0.052462004 -0.040448185 -0.04606969 -0.05691831
-0.016811218 0.059932154 0.011301565 0.07891892 0.089564614 0.0229655 -0.07027545 -0.03762648
-0.076324515 0.0612563 0.08918748 0.0537961 0.01819556 0.017137086 -0.07269682 0.07444756
0.019862141 0.013743239 -0.08298679 0.011110012 -0.10733888 -0.0415666 -0.12349219 -0.048851278
-0.04274724 -0.03434413 0.038979903 0.079011776 0.092527576 0.023843253 0.06513334 0.100608334
-0.083753966 -0.040668577 -0.018560141 0.022001697 -0.025807716 0.05013242 -0.07261555 0.03111912
-0.04711903 0.022451088 -0.06605143 0.070943154 0.07026749 0.06887971 -0.08508475 0.032935984
-0.065095864 -0.03017582 0.012018595 0.07312179 0.013552337 0.06388501 0.08714166 0.082030594
-0.008232166 0.013026889 -0.07023501 -0.050597865 -0.039138727 0.0063778087 -0.0763046 -0.012791901
-0.062105462 0.0035750838 0.047452122 0.034215033 -0.0882283 -0.019779028 0.022203477 -0.019401204
-0.00056759163 0.06753801 0.022502948 -0.033946883 -0.07277723 -0.04102297 0.08270334 0.07191798
-0.07552301 0.031083092 -0.065554775 -0.033583384 -0.023010945 -0.06974442 -0.05293919 0.056832105
-0.038292713 0.015810063 -0.017859986 0.06877106 -0.08176437 -0.036913767 -0.0197294 -0.05109922
-0.031902865 0.05586015 -0.048711296 -0.08326222 -0.06289685 0.030075554 -0.06007536 -0.015251319
0.06085753 -0.049951166 0.043707702 0.048594393 0.015974032 -0.033637535 0.04400401 0.034851357
-0.07815983 -0.04885725 -0.07520871 0.041570593 0.07038563 -0.07766705 -0.068718925 -0.060940098
0.048758097 0.03829829 0.09629859 -0.031640857 -0.020419683 0.018218668 0.037534375 -0.005677496
-0.06407609 -0.03724289 -0.07664588 -0.07361813 -0.058811985 0.011112639 -0.00531447 -0.0742616
0.006065456 -0.040114116 -0.039685596 -0.018850174 0.016513774 0.02937956 0.0342909 -0.030342728
-0.063550875 0.049664263 -0.018845772 -0.038261183 0.06923189 -0.048398174 0.029759524 -0.06475189
-0.01944906 0.016104717 0.056471583 -0.025321968 -0.0014932277 -0.007726116 -0.053209048 -0.01105377

features.1.linear.bias f4 [128]
00000000: 88e4 4e3d 6caa b0bd 8646 c23b 4ca6 4a3d
00000010: 7824 633d d6b1 bc3d dac0 b13d caa4 babd
00000020: 051e 2b3d e6e8 9a3d 10a4 10bd dff0 8bbd
00000030: 496e 14bd 8cbd d53c 0340 7c3d 918b 80bc
00000040: 6641 623d e6c0 f0bc a7af 2dbd a69d 883d
00000050: 9b0d 4b3c f7e0 29bd 37cd 493c 3b69 833d
00000060: 47ed c43d 4850 13bc 2ef6 9e3d 010e fe3d
00000070: 1c88 b33b fc40 6f3c ffc9 e43d ed94 703d
00000080: 3ba6 5ebd b2de 9ebb 8250 13be 479c aebc
00000090: dda0 993d a260 f7bb 2464 613d 4dc7 22bc
000000a0: 7dcf ab3d ed20 47be 41d7 083d 5d2f 11bd
000000b0: 9ef2 33bd 3f23 ba3d eef2 9cbc e6b6 89bd
000000c0: 00e9 5d3d 0064 7eba df72 773d a46b b13d
000000d0: b7c8 3cbb 538d b13c 9db4 2bbd f636 68bd
000000e0: 8ba7 d63d 0d66 41bd e4b5 bdbd 18fd a039
000000f0: 445d c53c 3d05 cf3d 038f b8bd 283c 933d
00000100: 118b 68bd 94ad de3b 3b57 e8bc 0828 bdbc
00000110: b92e a03d 4ff0 36bd cbf4 1ebd 3c22 c43d
00000120: 8785 8c3d f2ce 6cbc d2ce b83d f181 bd3a
00000130: b5d3 b33d d88d ba3d b075 8abc 7105 a93d
00000140: f3b6 a13d 36ee febc f39c 3e3c f3e5 c6bd
00000150: a2bf 103d 75e3 6fbb 3f39 90bd 1b17 ef3b
00000160: 5fa7 5dbc 7453 f83d ccf8 03bd 0328 5bba
00000170: 751f 26bd 0190 9c3d 5a2b ed3c fddf de3c
00000180: c704 ba3d 6041 ed39 27d8 16be 455c 95bd
00000190: 7f33 873d 88c0 043d 0d60 203d eb32 9e3d
000001a0: ee4a 213d 865c ae3d 546a 893d df85 043d
000001b0: 3f7d d03d dc0c 9f3d f279 573d 9631 723d
000001c0: 3b60 aebd 5799 6cbd cf3b 423d ddc3 c93d
000001d0: 41ba 9c3d b165 45bd f473 803b 2176 563d
000001e0: 5139 e1bc 3661 be3d 1bab 533c 7517 e1bc
000001f0: d141 ac3c b76d 973d 7590 59bd c6b0 83bd
0.050510913 -0.086262554 0.005928817 0.049475 0.0554547 0.09213607 0.08679362 -0.09113462
0.041776676 0.07563953 -0.035312712 -0.06833052 -0.03623799 0.02609136 0.061584484 -0.01569155
0.05523815 -0.029388856 -0.042403843 0.06670694 0.0123933805 -0.04147431 0.012316993 0.064165555
0.096155696 -0.0089913085 0.07761799 0.12405015 0.005478872 0.014602896 0.1117134 0.058735777
-0.05435775 -0.0048483247 -0.1438618 -0.021314753 0.07501385 -0.0075493613 0.055027142 -0.009935212
0.083891846 -0.19446154 0.033408407 -0.03544556 -0.04393255 0.09088754 -0.019158807 -0.06724338
0.054177284 -0.0009704232 0.060412284 0.08663109 -0.0028806159 0.021673834 -0.041920293 -0.05669304
0.10481175 -0.047216464 -0.092632085 0.00030706148 0.024092324 0.10108421 -0.09011652 0.07189208
-0.05677325 0.0067955945 -0.028361907 -0.023090377 0.07821412 -0.04466277 -0.03880767 0.09576842
0.06861406 -0.0144536365 0.09023823 0.0014458281 0.08780614 0.09109086 -0.01690182 0.08252991
0.07896223 -0.031119447 0.011634099 -0.09711828 0.035339005 -0.003660408 -0.07042169 0.0072964556
-0.013528674 0.121252924 -0.032219693 -0.0008360149 -0.040557344 0.07644654 0.028951336 0.027206415
0.090829425 0.0004525287 -0.14730893 -0.0729299 0.06601619 0.032410175 0.0391541 0.077245556
0.0393781 0.08513741 0.067097336 0.032354232 0.10180139 0.077661246 0.05260653 0.05912932
-0.08514448 -0.057763424 0.04742032 0.09851811 0.076527126 -0.048192684 0.0039200727 0.05235875
-0.02749315 0.09295885 0.012919213 -0.027477005 0.021027477 0.07393973 -0.05311628 -0.06430201

fc_mu.weight f4 [2, 128]
00000000: 45a9 63bd b399 3a3c b709 053e 7633 d53d
00000010: 3236 013e 6e3e 32bb 6d06 f7bd 0b30 a53b
00000020: cb9c de3d 49ab 7c3d d95f aebd 2d03 16bd
00000030: 5cc9 92bd 1bc7 9cbc 0fba 483e 5962 cebc
00000040: a2d9 3e3d 5d58 98bd 8293 593e cfab 5a3d
00000050: 7ea2 27be ba70 e7bd ad8c 6f3d bae1 893d
00000060: ac56 e0bd b6df bbbd b882 093e 4156 03be
00000070: 0cd1 cebd df9f 2d3e fed8 80bd 71f9 1fbe
00000080: 4bea e13d bb39 e43d 9b9f 1a3e 10c4 f4bd
00000090: 8879 de3d 1b8a 9e3e 17a0 b7bd 48d2 36be
000000a0: cc4c 0dbe 0195 6a3d 1000 84bd 88b3 333e
000000b0: 7450 14be a90d 0abe 7dbb d33d b807 9a3d
000000c0: e210 e53c 1bc2 233e 2302 4f3e 5055 03bd
000000d0: 5087 113e 278a 91bd 7f19 89bd 95b2 fe3d
000000e0: c8b5 973d 5125 fa3c 35fa 863d 4879 5e3e
000000f0: c147 11be 41ff d8bd b346 b0bd 485c 23be
00000100: 1709 a03d ea48 cdbd 62d7 603d cdf7 be3d
00000110: 2765 99bd f61d c33d bef6 63bd 1634 d93c
00000120: 6903 a3bd 92f8 8bbd 3b97 bfbd ea34 06be
00000130: fc25 b7bd 4a2f bebd 4c01 bd3d 9685 4f3d
00000140: bf2c 113e e20a 1fbd 38da 5fbd ccda 863d
00000150: b8b1 833d dd57 89bd 0c7c 953a 3d30 1f3e
00000160: f6fc 10bd 5fe2 5c3d 2d88 c2bd fcb0 6a3e
00000170: b6a3 813d 6587 103e 19fe 183d 14d6 1a3e
00000180: 6043 763e 30d8 8cbd 458d a23d 37b4 663c
00000190: 5e32 ecbd 3e8c ad3c b8f7 0abe d17a ef3d
000001a0: 6e00 abbd aba2 a73c a615 e93d e3ba d13d
000001b0: 98d4 063e ad01 053e cf36 eb3b 40a6 dc3c
000001c0: 612e 93bc e25c e33d 0870 b33d c808 ae3d
000001d0: 5717 1cbe 594e 593d 525a 56bc 7250 2abe
000001e0: e5dd 343e 7e98 e2bd 51af 16be 547b 173e
000001f0: 41cb e03d 8dcf dd3b aeda 3c3d 48e2 5dbc
00000200: a7f6 273e e9cc 563d 31fa ef3d 4725 6abd
00000210: 27d2 9f3a 2cf7 56bd c06e f13d a181 10bd
00000220: fd7a 79bd 5036 963d 6290 543d a6c8 b53d
00000230: 555d de3d 4bd0 183e 5622 043e b527 f43d
00000240: 2987 863d f144 3c3e d49a cfbc 9f8b 22be
00000250: 7737 82bd 053c 11be 84d6 efbd 4aa5 c0bd
00000260: 9e4f 1ebe 960d 5b3d 828f ce3b 1047 c6bd
00000270: c706 cbbd 0001 273d 5b32 8d3c 28ab e5bc
00000280: 8a6e 5a3d 69d2 e0bd ccac b23d c44c a4bd
00000290: c0d8 bbbd e45a 313e 3576 bf3c d51e cbbc
000002a0: 71d8 88bd 8db0 50bc aae3 353d 4f78 f63d
000002b0: 8a5b 21bd 10ff 40be 2a0d 96bd 7c83 9fbd
000002c0: b0e7 0e3e f014 afbc d202 8bbd 31b5 6e3d
000002d0: ea87 87bd a252 6cba a6ae b23d f465 1b3d
000002e0: 79e3 253d 8675 6c3d dcae 0bbd 6c48 243e
000002f0: 54e2 043d be8d 48bd 6163 27be 4b81 9f3d
00000300: 2df3 0a3e d2e2 c8bc 30ae b03d 0dd4 15be
00000310: 04e1 c4bd 1743 453d d668 48bd 6579 d8bd
00000320: 5d5b 62bd 6f70 abbc 29df d8bd 7d49 093e
00000330: 5163 94bd 585b 90bc c451 bc3d c0df f63d
00000340: 533d 963b 7e5a 523d 692b 323e 22d7 a4bd
00000350: 6ef4 a7bd eab4 e83d 7d7c 803d 8318 7bbd
00000360: 894f d83c d435 0ebd d774 c3bd 9a40 8b3d
00000370: add3 fbbd 5ff1 123d ed9b e4bd 629e ccbd
00000380: c285 f03d 4497 4f3b 58b5 88bd 1870 0fbe
00000390: 497f d5bd d905 a53c dcc7 c4bd 0470 573d
000003a0: cb09 113d fb37 08be 4285 2abe ee8e a33d
000003b0: 4e34 413d d814 c0bc 0095 c63d 4673 343e
000003c0: fd24 82bc cf9c b8bd ea88 12bd 20e0 c5bd
000003d0: 8850 25bd e4d1 ab3d 9e8c 21be 3e3e da3c
000003e0: ca3f 903d 16d6 17bd 422f 003d a880 4b3c
000003f0: 3496 dc3d e9fc a8bd 4bcf bf3d 7f9d 5dbc
-0.05558135 0.011389184 0.12991987 0.10410206 0.1261833 -0.0027197856 -0.120617725 0.0050411276
0.1086975 0.061686788 -0.08514375 -0.036624122 -0.071673125 -0.01913791 0.19602226 -0.02519338
0.04659427 -0.07438729 0.21247676 0.053386506 -0.1637058 -0.11300798 0.05848377 0.06732507
-0.10954031 -0.09173529 0.13428771 -0.12825872 -0.10098466 0.16955517 -0.06291388 -0.15622498
0.11031016 0.11143824 0.15099947 -0.119514585 0.10863024 0.3096474 -0.089660816 -0.17853653
-0.13798827 0.057271007 -0.064453244 0.17548954 -0.14483815 -0.13481773 0.10338495 0.075210035
0.027962152 0.15992014 0.20215659 -0.032063782 0.14211774 -0.071064286 -0.06694316 0.124364056
0.07407719 0.030535372 0.06590692 0.21725953 -0.14187528 -0.10595561 -0.08607235 -0.15953171
0.07814234 -0.10023673 0.054892905 0.09324608 -0.074899964 0.09527199 -0.055655234 0.026514094
-0.07959635 -0.068345204 -0.09355017 -0.13106123 -0.08942792 -0.092863634 0.09228763 0.050664507
0.14177226 -0.038828738 -0.05465147 0.06584701 0.064303815 -0.06706212 0.0011404767 0.15545745
-0.035397492 0.05392682 -0.0949863 0.22919077 0.063300535 0.14114149 0.0373517 0.15120727
0.24049139 -0.06877172 0.07937101 0.0140810525 -0.11533044 0.021185037 -0.1357106 0.11693347
-0.08349691 0.020463308 0.11381082 0.10240724 0.13167036 0.1298892 0.0071781646 0.026934743
-0.017966451 0.111017 0.08761603 0.08497769 -0.15243278 0.053053234 -0.0130830575 -0.1663225
0.17662771 -0.11064242 -0.14715315 0.1479314 0.109762676 0.0067691267 0.046106987 -0.013542719
0.16402684 0.05244151 0.11717642 -0.057164457 0.0012193368 -0.052481815 0.11788702 -0.035279874
-0.060908306 0.07334578 0.051895507 0.08876161 0.108576454 0.14923207 0.12903723 0.11921636
0.065687485 0.18385674 -0.025342382 -0.15873574 -0.06358235 -0.14183052 -0.117108375 -0.094065264
-0.15460059 0.053479753 0.0063037286 -0.09681523 -0.09913402 0.040772438 0.017235925 -0.028035715
0.053328075 -0.109776326 0.08724365 -0.080224544 -0.09172201 0.17319828 0.023371795 -0.024794975
-0.06681908 -0.0127374055 0.04440657 0.12034666 -0.03939394 -0.18847299 -0.073267296 -0.077887505
0.1395557 -0.021372288 -0.06787647 0.058278266 -0.066177204 -0.0009014999 0.08724718 0.037939027
0.040500138 0.057729267 -0.034102306 0.16043252 0.032442406 -0.0489633 -0.16346504 0.077883326
0.13569327 -0.024522219 0.08626974 -0.14631672 -0.09613231 0.048159685 -0.048928104 -0.10570029
-0.055262912 -0.020927636 -0.105894394 0.1340694 -0.072455056 -0.017621681 0.09195283 0.12054396
0.004584947 0.05135583 0.17399372 -0.08048846 -0.08200918 0.113626316 0.06273744 -0.061302673
0.026405113 -0.034719303 -0.0954377 0.06799431 -0.12296233 0.03587472 -0.11162553 -0.099911466
0.11744262 0.0031675855 -0.066752136 -0.14007604 -0.10424668 0.02014439 -0.09608433 0.05259706
0.03540973 -0.13302605 -0.16652396 0.07986246 0.047169022 -0.02344744 0.09696388 0.17622098
-0.015886778 -0.09014284 -0.035775103 -0.09661889 -0.040360004 0.08389643 -0.15776297 0.026641008
0.07043417 -0.037069403 0.03129507 0.012420811 0.107708365 -0.08251364 0.0936571 -0.0135263195

fc_mu.bias f4 [2]
00000000: 2a3f 8f3c efdc 1e3d
0.017486174 0.038784917

fc_std.weight f4 [2, 128]
00000000: 3a13 0ebe 2534 f83b e2d4 80be be28 a6bd
00000010: de7c 55be 9238 a3bd b529 d3bd 2243 47bd
00000020: 14a1 b8bd 40ae 40be aff3 dbbd 672f 53be
00000030: 79e7 0ebe 945b a63c 8d5e 83bd cee9 38be
00000040: 88ee 70be f914 94bd c8e3 a9be 23c6 89be
00000050: f624 5abe 2ee8 93bd cdd4 51be 7215 36be
00000060: 8179 15bd 56e3 34be b365 8abe 1c68 86be
00000070: df72 60bd faae 02be 7871 85be 9aa0 e1bd
00000080: d904 bbbd 4015 89be 823f 8cbd fe75 56be
00000090: 6ea9 d0bd 6e26 f6be ac89 32be 4cab b5bd
000000a0: b9e4 24be e16f 88bc 47db 7cbe 04be e0bd
000000b0: 1430 1bbe fba5 95bd 6b50 21be df46 c8be
000000c0: fa89 46bd d45a 81be 1e8c d4be d2a1 a9be
000000d0: 5a93 70be 15be e7bd dccf 9e3d 370e 70be
000000e0: ac72 47be bd98 a9be 7839 76be e8f0 623d
000000f0: cd57 1bbe de39 14be 6e19 9c3c 4f9c 23be
00000100: 97b5 f6bd 073d 69be ba92 28be 55c8 66be
00000110: fec5 49be bf74 72be 1dc9 d2bd c5f4 9bbd
00000120: d81e 87be 5544 27be 955e 6ebe d299 acbe
00000130: a3e1 68be 839e a4be 4024 ab3b da4b c3bd
00000140: 3d00 043c 22b0 97be 703a 08be ed68 52bc
00000150: 721f 85be eca4 3bbe 4443 17bd a40f eabe
00000160: 7118 85be 8f6c 0ebe 03f0 4fbe 5de4 17bc
00000170: 3ff6 0fbe f146 b6bd c47e 62be 063c b2bd
00000180: 4227 e7be 3c85 89be 413e 1abe 17f3 52be
00000190: ec4e 54be 5b27 88be bdaa 4fbe 6810 b0bd
000001a0: b63d 8ebe 90de 5dbe bdd4 2bbe 563c 86be
000001b0: ae54 733b 79b3 b2ba c2cb 96bd 26bc bbbd
000001c0: c7ef c6bc bf36 8cbe d44f e9bd 42a9 15bd
000001d0: 5a22 a4bd bb2f ebbd ba96 22bd 7e5b 43be
000001e0: 62fe 5f3d 7b5d 02be 8610 91be 713a 98be
000001f0: 8fcf 44be bfd4 83be 9cd5 b03c 9a70 34bd
00000200: 6a13 63bd ea7d 573d 40e7 8dbd f39a 57be
00000210: 7861 73bd dd58 6dbe cc75 74be 12f4 bc3b
00000220: 18d4 12be 23d3 71be 3ec1 2a3d 0af0 61be
00000230: 862d e2bd 9eef a0bd beb1 5a3d b9ee 07be
00000240: 60fb 62be 33d8 17be 32ac 96be af34 66be
00000250: 620f a5be b050 7bbe 27d2 29be efd2 5ebe
00000260: 7f5d 2ebe ec57 d8bd 4e06 58be 73d8 55be
00000270: f050 79be b2a1 823d ba9e 8bbe 1d0a 09be
00000280: 6e8b 2abd 49b2 d0bd ea24 a03d 9164 9abe
00000290: 7312 58be 3475 84be f7e4 93be 9a56 fbbd
000002a0: 0e8f 57be 394d bc3d 41a5 cfbd a5ae 7d3c
000002b0: b635 a1bd 6746 0abe a3c5 73be 87e5 76be
000002c0: c820 fabd d79c 46be 8cec a9be 6a58 82be
000002d0: 8240 94be 9efc 53bd 28d8 e63b 67f0 2fbe
000002e0: 0acd 52be 4c12 38be 8b7d d2bd 8dd7 a33d
000002f0: 5aba 66be 8808 98be 5c22 f83c 4322 c2bd
00000300: 2d60 d0bd 0d51 59be 014a 32be a859 17be
00000310: f083 9ebe 10b3 54be 01c1 36be f964 92be
00000320: 786d 80be 5587 8c3d 3132 adbe 94aa 04be
00000330: 7c76 b0be 79c2 8bbe ee89 ebbd d864 34be
00000340: 160c 343d db42 a2be 0c2f a0bd 3618 e6bc
00000350: c13d 97be 1f76 54be 7a79 313d 8e05 5bbe
00000360: e5ed 84be e0f1 74be 71e8 76be 6f16 94bd
00000370: 3814 85be 6f3b d2bd 7064 96be 64b5 5abe
00000380: 5b27 7bbe 5785 9cbe fa12 a3bd 8d50 37be
00000390: cda8 a9be 5aad 76be 64aa a3be 3316 d6bd
000003a0: 88d7 92be 6965 15be 0407 49be ad2d 21bd
000003b0: 6427 94bc 1796 3dbe d952 01be 1b75 c0bd
000003c0: 5c7b 203d 7578 2ebe 5e05 5cbe 4054 6ebe
000003d0: 471e 25be 5ba7 31be 4bec e8bd 1ce2 2cbe
000003e0: fad8 9cbd d051 a1be ae99 79be a161 f4bd
000003f0: 5d3c f6bd 0558 a8be 1112 20be c05f eebc
-0.13874522 0.0075745755 -0.25162417 -0.0811324 -0.20848414 -0.07969774 -0.10310689 -0.048648007
-0.09015098 -0.18816471 -0.10739838 -0.20623551 -0.13955487 0.02030734 -0.064145185 -0.1805794
-0.23528492 -0.07230563 -0.33181596 -0.2690898 -0.21303162 -0.07222019 -0.20491333 -0.17781618
-0.03649283 -0.17664847 -0.27030715 -0.26251304 -0.05479705 -0.12762061 -0.26063132 -0.110169604
-0.09131784 -0.26774025 -0.06848051 -0.20943448 -0.10188566 -0.48076195 -0.1743533 -0.08870563
-0.16102876 -0.01665491 -0.24693023 -0.109737426 -0.15155059 -0.07307049 -0.15753333 -0.3911657
-0.04847143 -0.2526461 -0.4151315 -0.33131272 -0.2349371 -0.11315552 0.0775449 -0.23442923
-0.19477338 -0.33124343 -0.2404536 0.055405527 -0.15170212 -0.144752 0.019055095 -0.15977596
-0.12046354 -0.22777186 -0.16462222 -0.22537358 -0.19704434 -0.23677348 -0.102922656 -0.076150455
-0.2639072 -0.1633466 -0.23278268 -0.33711106 -0.22742324 -0.32152185 0.005222827 -0.09535952
0.008056697 -0.29626566 -0.13303542 -0.012842399 -0.26000553 -0.18324631 -0.036929384 -0.45715058
-0.2599521 -0.139086 -0.20306401 -0.009270755 -0.14058779 -0.0890025 -0.2211867 -0.08702855
-0.4514714 -0.26859462 -0.1506281 -0.20600544 -0.20733231 -0.26592526 -0.20279975 -0.08596879
-0.27781457 -0.21666932 -0.16780372 -0.26217908 0.003712933 -0.0013633809 -0.073630825 -0.09166746
-0.024284257 -0.27385518 -0.11392179 -0.03653837 -0.080143645 -0.11483713 -0.039694525 -0.1907787
0.054685958 -0.12730972 -0.2833292 -0.29732087 -0.19219802 -0.2574825 0.021586232 -0.044052698
-0.055438437 0.052610315 -0.06928873 -0.21055202 -0.059419125 -0.2317843 -0.23873061 0.0057664
-0.1433872 -0.23615699 0.041688196 -0.22064224 -0.11043839 -0.07858203 0.053392164 -0.13274659
-0.22166204 -0.14828567 -0.2942825 -0.22481035 -0.322383 -0.24542499 -0.16584073 -0.21760152
-0.17027853 -0.10563645 -0.21096155 -0.2088335 -0.24347281 0.06378497 -0.27269536 -0.13382764
-0.041636877 -0.10190255 0.07819541 -0.3015485 -0.21100788 -0.2587067 -0.28885624 -0.12272377
-0.21050665 0.091944166 -0.101389416 0.015483533 -0.07871573 -0.13503419 -0.23805861 -0.24110995
-0.12213284 -0.19395767 -0.33188283 -0.2545808 -0.28955466 -0.051754586 0.007044811 -0.1718155
-0.20586029 -0.1797573 -0.10277852 0.080000974 -0.22532025 -0.2969401 0.030289821 -0.09479191
-0.10174594 -0.21222325 -0.17411043 -0.14780295 -0.30960035 -0.20771432 -0.17847063 -0.2859266
-0.25083518 0.0686175 -0.33827356 -0.12955695 -0.34465396 -0.27296808 -0.115009174 -0.17616594
0.04395684 -0.31691632 -0.078214735 -0.028087717 -0.29539302 -0.20748185 0.04332874 -0.21388838
-0.2596275 -0.23920393 -0.24112107 -0.07230841 -0.25991988 -0.10265242 -0.29373503 -0.21358258
-0.24526732 -0.3057048 -0.07962604 -0.17901821 -0.33136597 -0.24089566 -0.31965935 -0.10453453
-0.28680062 -0.14589466 -0.19631582 -0.0393502 -0.01808519 -0.18514286 -0.1262926 -0.09397336
0.039180145 -0.17038138 -0.21486422 -0.23274326 -0.16124831 -0.17348997 -0.11373194 -0.16883129
-0.076585725 -0.3150773 -0.2437503 -0.11932684 -0.12023232 -0.32879654 -0.15631892 -0.029098392

fc_std.bias f4 [2]
00000000: f80c 82be 038a 89be
-0.2540052 -0.26863107
