tmpcc.ckpt (torch, 77319 bytes, 5 tensors)

features.0.linear.weight f4 [128, 16]
0	0xc05d8165	-3.4610226
1	0x3cc16133	0.023605919
2	0xbfc63885	-1.5485998
3	0xc021ca20	-2.5279617
4	0xbe483d71	-0.19554688
5	0xc102b260	-8.168549
6	0xbeab8bd6	-0.33505124
7	0x4004bf44	2.074174
8	0xc0719bc1	-3.7751315
9	0xbe1531a4	-0.14569718
10	0xbfe8b87c	-1.81813
11	0xc006eb18	-2.108099
12	0xbf28c761	-0.6592923
13	0xc0fcf489	-7.9048505
14	0xbfb77c0b	-1.433473
15	0x402490a7	2.5713289
16	0xc08c7d60	-4.3903046
17	0x402e5051	2.7236521
18	0xc07650b4	-3.8486757
19	0x3fdfe2c7	1.7491082
20	0xbdfbfa99	-0.12303657
21	0xc0b47548	-5.6393166
22	0x3f0f45c2	0.55965817
23	0x400d289c	2.2056036
24	0xc0a0a192	-5.019723
25	0x4005cb3a	2.090529
26	0xc0751aae	-3.8297534
27	0xbe10c6a4	-0.14138275
28	0x3e8e92ac	0.27846277
29	0xc0bbc79e	-5.8681173
30	0x3ee1a5b9	0.4407175
31	0x3fe141a4	1.7598157
32	0x3d1abfe0	0.037780643
33	0xbd3a7b82	-0.045527942
34	0x3ec7e825	0.390443
35	0xbfd072c6	-1.6285026
36	0xbeb3d676	-0.35124558
37	0x3f9de244	1.2334676
38	0x40505092	3.2549176
39	0xbfba64c5	-1.4562002
40	0x3d1538e4	0.03643121
41	0xbd223d3a	-0.03960917
42	0xbd8c7370	-0.068579555
43	0xbfbe80f0	-1.4883099
44	0xbed71aaa	-0.4201253
45	0x3f9fd6bf	1.248741
46	0x4025f765	2.5932248
47	0xc01da4ea	-2.4631906
48	0xc000c1d0	-2.0118294
49	0x3fe4a8ee	1.7864053
50	0xc073b5d7	-3.8079736
51	0xbe5a7ada	-0.21335927
52	0xbf42c42c	-0.76080585
53	0xc06cf50b	-3.7024562
54	0x3d9e386b	0.077256046
55	0x3e2917fa	0.16513053
56	0xc01619f9	-2.3453352
57	0x3fb4fa5c	1.4138904
58	0xc070eb66	-3.7643676
59	0xbe3ae501	-0.1825142
60	0xbf2f8e79	-0.6857677
61	0xc082e38b	-4.0902762
62	0xbe66bbd6	-0.22532591
63	0xbe415650	-0.18880582
64	0xbe3fe6a1	-0.18740322
65	0xbdef2e71	-0.1167878
66	0xbcce7170	-0.025200576
67	0xbf172d11	-0.5905314
68	0x3ea91fa3	0.3303195
69	0x3f7e707d	0.99390393
70	0x40697594	3.6478014
71	0x3fb418c2	1.4070055
72	0xbe24f784	-0.16110045
73	0xbde7bf45	-0.11315779
74	0x3e09a6ab	0.13442485
75	0xbf1584f9	-0.58406025
76	0x3d9bc0f5	0.07605163
77	0x3f93edb4	1.1556916
78	0x402c28c9	2.6899893
79	0x3f8dcf5d	1.1078907
80	0xbcd28290	-0.025697023
81	0xbe9c646e	-0.30545372
82	0x3ea0e13c	0.3142184
83	0x3fbbe7a6	1.4680068
84	0xc0332e90	-2.799717
85	0xbf44af27	-0.7682976
86	0x3e363036	0.17791829
87	0xbd5d9a94	-0.054102495
88	0xbd8783e1	-0.06616951
89	0xbea4aa3c	-0.3216113
90	0x3c96727e	0.018365141
91	0x3f935a00	1.1511841
92	0xc04815dc	-3.1263342
93	0xbf906a77	-1.128249
94	0x3ecf5291	0.4049268
95	0x3e8f158b	0.27946123
96	0xbf69e670	-0.91367245
97	0xbdb5e6df	-0.08881926
98	0xbfc5b87a	-1.5446923
99	0x3dbce015	0.09222428
100	0x3e7c5a71	0.24643876
101	0xc022eed3	-2.5458267
102	0x3e6660ce	0.22497866
103	0x3c7af5da	0.015317405
104	0xbf557ae0	-0.8339062
105	0x3ed32757	0.4124095
106	0xbfc27df6	-1.519469
107	0xbea34129	-0.3188565
108	0x3eb06a27	0.34455988
109	0xc0105195	-2.2549794
110	0xbe3dc909	-0.1853372
111	0x3d877e13	0.066158436
112	0xc0a64fca	-5.19724
113	0x3f3866bc	0.7203176
114	0xbeaa2dee	-0.33238167
115	0x3f7a459d	0.9776247
116	0x406fec4c	3.7487974
117	0x3f9f5f7d	1.2451016
118	0xbfbd6356	-1.479594
119	0xbec77dc3	-0.38963136
120	0xc098a766	-4.7704344
121	0x3f37ecfb	0.7184598
122	0xbe84303d	-0.25818053
123	0x3f643240	0.89139175
124	0x405b14e3	3.4231498
125	0x3f8ed89b	1.1159853
126	0x3f541a1d	0.82852346
127	0xbf8eefa3	-1.1166881
128	0xc0406557	-3.0061853
129	0x3f528855	0.82239276
130	0xc031571e	-2.7709422
131	0xbf10468c	-0.56357646
132	0xbf8f7552	-1.1207678
133	0xc04127de	-3.0180583
134	0x3ecea238	0.40358138
135	0x3e1d655e	0.153707
136	0xc058a9cd	-3.3853638
137	0x3f65b2f3	0.8972618
138	0xc03e3963	-2.9722526
139	0xbefa3081	-0.4886513
140	0xbf6df21e	-0.92947567
141	0xc043a143	-3.0567176
142	0x3febf497	1.8434018
143	0xbfd83537	-1.689124
144	0x3df5e658	0.12006825
145	0xbc115605	-0.008870606
146	0xbf69ee1a	-0.9137894
147	0x3eb3ff89	0.35155895
148	0xbe5440fa	-0.20727912
149	0x3eaee2e9	0.34157494
150	0x3e059cd5	0.13048108
151	0x3dd6ba28	0.10484725
152	0x3e2e506f	0.1702287
153	0x3cf043a7	0.029329134
154	0xbf0859b4	-0.53261876
155	0x3e277ff0	0.16357398
156	0xbe804faa	-0.2506078
157	0x3ee01167	0.43763277
158	0xbeb80402	-0.35940558
159	0x3f372ba4	0.71550965
160	0xc054363f	-3.315811
161	0xbdfd8f66	-0.12380867
162	0x3e403971	0.18771912
163	0x3febf8b4	1.8435273
164	0xbd939aba	-0.07207246
165	0x3f068fa2	0.52562916
166	0x3ef9eb89	0.48812512
167	0xbf4c0ec9	-0.7971006
168	0xc023543a	-2.5520158
169	0xbe0624b0	-0.13099933
170	0x3e845150	0.25843287
171	0x3ff3fb62	1.9061091
172	0xbe316007	-0.17321788
173	0x3e534922	0.20633367
174	0x405a2516	3.4085135
175	0x3f2dccf5	0.67890865
176	0xbd13d546	-0.036092065
177	0xbe6f369e	-0.23360679
178	0x3de1084f	0.10987913
179	0x3f00f6c6	0.50376546
180	0x3fb5e3a3	1.4210094
181	0xbfbf157a	-1.4928429
182	0x3e660b5d	0.22465272
183	0xbd98625e	-0.07440637
184	0xbd9c6857	-0.07637089
185	0xbe63042f	-0.22169565
186	0xbe8e3b72	-0.27779728
187	0x3f4c18e2	0.7972547
188	0x3f918a4b	1.1370329
189	0xbfe6df44	-1.8036885
190	0x3fa71051	1.3051854
191	0xbfadfcae	-1.3592737
192	0xbf73691c	-0.9508226
193	0x3ec878d6	0.3915469
194	0xc00d8c16	-2.2116752
195	0xbeeee686	-0.4666025
196	0xbebb941d	-0.3663644
197	0xbf8c57e6	-1.0964324
198	0x3e812fe7	0.2523186
199	0xbcac5487	-0.0210364
200	0xbf83e46a	-1.0304081
201	0x3c2c3c2f	0.010512396
202	0xbffb45e8	-1.9630709
203	0xbf1f8fa3	-0.6232855
204	0x3df51265	0.11966399
205	0xbf9a1d98	-1.2040281
206	0xbee78a0d	-0.45222512
207	0xbd34598d	-0.044030715
208	0xbecb6e23	-0.39732465
209	0x3d23adaa	0.03996054
210	0xc058df2b	-3.388621
211	0xbefec15f	-0.49756905
212	0xbd85af6f	-0.06527602
213	0xc02db32b	-2.7140605
214	0x3a4291ca	0.0007422237
215	0x3caeb668	0.021327212
216	0xbf01cfaa	-0.50707495
217	0x3e15f2a1	0.14643337
218	0xc05e9e50	-3.4784126
219	0xbefc4a43	-0.49275407
220	0xbea39937	-0.3195283
221	0xc0195bf5	-2.3962376
222	0x3f1c5b6f	0.61077017
223	0x3ef78e42	0.48350722
224	0x3ca7bbf0	0.020475358
225	0x3d6cef33	0.057845306
226	0xbc3879ed	-0.011259538
227	0x3f865b3b	1.0496591
228	0xbf63b384	-0.88945794
229	0xbf7f8aaa	-0.9982096
230	0x3fb67a0b	1.4255995
231	0x3f9aced2	1.2094367
232	0xbc171acf	-0.0092227
233	0x3d64f0b9	0.055893634
234	0xbdb07283	-0.086155914
235	0x3f287e4d	0.6581772
236	0xbf75f129	-0.96071106
237	0xbf932817	-1.149661
238	0x3f868830	1.0510311
239	0x4012c68e	2.2933688
240	0xc02668cd	-2.6001465
241	0x3f16833b	0.5879399
242	0xc04b2575	-3.1741612
243	0xbf62ba79	-0.88565785
244	0xbdc247e1	-0.09486366
245	0xc0decbc5	-6.962374
246	0x3db78b75	0.08962146
247	0x3e32ae92	0.17449406
248	0xc03c31f1	-2.9405482
249	0x3ebac7c0	0.36480522
250	0xc03c51a8	-2.942484
251	0xbfbfc2d6	-1.4981334
252	0xbeee1a5c	-0.46504486
253	0xc0d88bf9	-6.7670865
254	0xbf373340	-0.71562576
255	0xbe9ed079	-0.31018427

features.0.linear.bias f4 [128]
0	0xbfb19b54	-1.3875527
1	0xc0685515	-3.630193
2	0xbe384cd7	-0.17998062
3	0xc09f9874	-4.98736
4	0xbdf0a5a7	-0.11750346
5	0x3f1c955b	0.611654
6	0xbfd7084a	-1.6799405
7	0x3df2cdf0	0.11855686
8	0xc0347e8c	-2.8202238
9	0x3f9f175f	1.2429007
10	0xbe7706db	-0.24123709
11	0xbee3708b	-0.444218
12	0xbf796ccc	-0.97431636
13	0xbfee1929	-1.8601428
14	0x3d9a347a	0.0752954
15	0xc01f3eff	-2.48822
16	0x3e1cc5d9	0.15309848
17	0xc04df2e2	-3.2179494
18	0xbe49beb4	-0.19701654
19	0xc037b423	-2.8703697
20	0x3f9b7adb	1.2146868
21	0xbf6d4eb6	-0.9269823
22	0xbeb9fe30	-0.36326742
23	0xbff25b46	-1.8934104
24	0x3ea409a1	0.32038596
25	0xbfdee2ca	-1.741296
26	0xc02aa8a5	-2.6665432
27	0xc0561f53	-3.3456619
28	0xc0517864	-3.272973
29	0xbf8cdd84	-1.1005101
30	0xc04c5394	-3.1926012
31	0xc01c0b73	-2.4381988
32	0xbfc9acaa	-1.5755818
33	0x3fb0fe20	1.3827553
34	0xbf4b47d8	-0.794065
35	0xc0451104	-3.0791636
36	0xc062ed85	-3.545747
37	0x3fbdc2f0	1.4825115
38	0xc01b45a0	-2.4261246
39	0x3f9cf1d3	1.2261299
40	0x3f1c2991	0.61000925
41	0xbfb1b7f3	-1.3884262
42	0xc025fa40	-2.593399
43	0xbe0d8424	-0.13819939
44	0x3e68f08f	0.22748016
45	0x3f3fbe70	0.7489996
46	0xc037060b	-2.8597438
47	0x3dc4c098	0.09607047
48	0xbfd3ca66	-1.6546142
49	0xbeba1d48	-0.36350465
50	0xbf54fd22	-0.8319875
51	0xbf9a3f2e	-1.2050531
52	0x3f492016	0.78564584
53	0xc0185578	-2.3802166
54	0xbff29081	-1.8950349
55	0xc004c987	-2.0748003
56	0xbf0d4785	-0.55187255
57	0xbfe497e9	-1.7858859
58	0xbf933c40	-1.1502762
59	0xbed333a5	-0.4125034
60	0xc03f5c64	-2.990014
61	0xbf63b6bf	-0.88950723
62	0xc000b320	-2.010933
63	0x3c05e2d9	0.0081717605
64	0xc01002eb	-2.250178
65	0xc01dd6e7	-2.4662416
66	0xc0343788	-2.8158894
67	0xc059101d	-3.3916085
68	0xc07082b7	-3.7579782
69	0xc040bc53	-3.0114944
70	0xbeecb3c6	-0.46230906
71	0xbfacb7fc	-1.3493648
72	0xbfc58ada	-1.5432999
73	0xc06f913f	-3.74324
74	0xbf92468f	-1.1427783
75	0xbff75c3b	-1.9325022
76	0x3f185c4b	0.5951583
77	0xbfdc0142	-1.7187884
78	0xc004b473	-2.0735137
79	0x3f144e68	0.5793214
80	0xc01e7a1e	-2.4762034
81	0xc09d32f6	-4.912471
82	0xbf42c75d	-0.76085454
83	0xc038b641	-2.886124
84	0xbf149d69	-0.5805269
85	0xbf2e8699	-0.6817413
86	0x3fae4293	1.3614067
87	0xc024b7d9	-2.5737212
88	0x3ecbcc1f	0.3980417
89	0x3e082939	0.13296975
90	0xbf14afb3	-0.58080596
91	0xbfae78b6	-1.3630588
92	0xbf0c7f8f	-0.5488214
93	0x3f93df97	1.1552609
94	0xc04f83ff	-3.2424314
95	0xbff6c887	-1.9279946
96	0xbef8b87a	-0.48578244
97	0x3f044ab6	0.516765
98	0x3f882f49	1.063943
99	0x3e3f5785	0.1868573
100	0xbf0e8d4b	-0.55684346
101	0xc05192df	-3.2745893
102	0xc01835c4	-2.3782816
103	0xbf4c51e6	-0.7981247
104	0xbf2cfe8a	-0.67575896
105	0xbfe3d1bb	-1.779838
106	0xbe7b70b3	-0.2455471
107	0xbfcc8121	-1.5976907
108	0xbe7a3a51	-0.24436308
109	0xbf9987dc	-1.1994586
110	0xc049e6cb	-3.1547115
111	0xbf87ae80	-1.0600128
112	0x3f2b491f	0.6690845
113	0x3c0d8832	0.0086384285
114	0x3f36947c	0.7132032
115	0xc07257ab	-3.7866008
116	0xbe69afb2	-0.22820929
117	0xc0282c88	-2.627718
118	0x3f694501	0.91120917
119	0xbff7ce78	-1.9359884
120	0x3e596d58	0.21233118
121	0xc012af9e	-2.2919688
122	0xc018e47d	-2.3889458
123	0xc060e1c2	-3.5137792
124	0xbf7f9b3b	-0.9984624
125	0xc06263fc	-3.5373526
126	0xbf9b1dca	-1.2118466
127	0xbec7c56a	-0.39017802

features.1.linear.weight f4 [128, 128]
0	0xbef1cded	-0.4722742
1	0xbe4daae7	-0.20084725
2	0xbe8ece44	-0.27891743
3	0x3eaef1ba	0.34168798
4	0x3f123a5d	0.57120305
5	0xbec22f27	-0.379266
6	0xbea8d3f8	-0.3297422
7	0xbfceb516	-1.6149013
8	0xbef88ad6	-0.48543423
9	0xbe4ff5cd	-0.2030861
10	0xbe3115c1	-0.17293455
11	0xbe35d0cd	-0.17755432
12	0xbe8ff88a	-0.28119308
13	0xbf2b4e35	-0.6691621
14	0xbfc7a2e0	-1.559658
15	0x3eaa126b	0.33217177
16	0xbc99a2c8	-0.018754378
17	0xbededf8d	-0.4352993
18	0xbe49334c	-0.19648474
19	0x3ee4a3c6	0.446562
20	0x3e853935	0.26020208
21	0x3bb443b2	0.005501234
22	0x3dc727f6	0.09724419
23	0xbc675be4	-0.0141210295
24	0xbe6b3dcd	-0.22972794
25	0xbeb1ee0f	-0.34751937
26	0x3bfcef4c	0.007718956
27	0xbfae461e	-1.3615148
28	0x3f152aa9	0.5826822
29	0x3ed98b43	0.4248906
30	0xbddcf300	-0.10788536
31	0xbe82ea0d	-0.25569192
32	0xba82f265	-0.0009990452
33	0xbdde1838	-0.10844463
34	0x3ece54a8	0.40298963
35	0x3f1a4635	0.6026338
36	0xbedd7845	-0.4325582
37	0x3e86c749	0.26323918
38	0xbf086929	-0.5328546
39	0x3f441276	0.7659067
40	0xbe380165	-0.17969282
41	0x3e3ce1cf	0.18445514
42	0xbf8d543b	-1.104133
43	0x3d5063bd	0.050876368
44	0xbf4ee2ee	-0.8081502
45	0x3be30672	0.0069282586
46	0x3e2ce1e9	0.16883053
47	0x3ef1b6ba	0.47209722
48	0xbf1e5769	-0.6185213
49	0x3e0ba87f	0.13638495
50	0xbf5cea88	-0.86295366
51	0xbf90ebd1	-1.1321965
52	0xbd8a6bd4	-0.06758848
53	0xbe7e0c3d	-0.24809356
54	0x3e038077	0.12841974
55	0xbc7fa1f9	-0.015602582
56	0xbf36c3f6	-0.7139276
57	0x3dfde5fe	0.12397383
58	0xbe1247ec	-0.14285249
59	0xbf041c8d	-0.51606065
60	0xbf724d1b	-0.94648904
61	0x3e4cdf21	0.20006992
62	0xbf220bdc	-0.63299346
63	0xbe4f3ca8	-0.20237982
64	0xbfdc9fe2	-1.7236292
65	0xbcecd0da	-0.028908182
66	0xbed37619	-0.4130104
67	0xbebe3b84	-0.37154782
68	0x3e433fb2	0.19067267
69	0xbd41f490	-0.047352374
70	0xbe6e51ce	-0.23273394
71	0xbe97b47b	-0.29629883
72	0xbed7cdca	-0.42149192
73	0xbf1b417b	-0.6064679
74	0xbed758e5	-0.4206001
75	0xbef945f8	-0.48686194
76	0xbfd997c3	-1.6999439
77	0xbe25ab56	-0.1617864
78	0x3e5721fa	0.21009055
79	0x3e7f186c	0.2491166
80	0x3e641080	0.22271919
81	0x3e23ac99	0.1598381
82	0xbef60c34	-0.48056185
83	0xbee74a4e	-0.45173877
84	0xbe419cb6	-0.18907437
85	0x3e8831d2	0.2660051
86	0xbdebe1bd	-0.115176655
87	0x3ee5368d	0.4476818
88	0xbea1dca7	-0.31613657
89	0xbedb5eea	-0.4284585
90	0xbf131af9	-0.5746303
91	0xbe001ade	-0.12510249
92	0xbdd948be	-0.106095776
93	0x3e94f1b7	0.29090664
94	0xbf12c084	-0.57325006
95	0x3e498577	0.19679819
96	0xbd9488d5	-0.07252661
97	0x3efbffc4	0.4921857
98	0xbf31525d	-0.692663
99	0x3e653b32	0.22385862
100	0x3fcc61b7	1.596732
101	0xbfd3ade9	-1.6537448
102	0xbe704fb2	-0.23467901
103	0xbf32412a	-0.6963068
104	0x3e09f067	0.13470612
105	0xbec1c181	-0.37842944
106	0x3f0cff27	0.5507683
107	0x3dd19ae1	0.10234619
108	0x3d02dff3	0.031951856
109	0xbeec00ff	-0.4609451
110	0xbf72c93d	-0.94838315
111	0x3f00604b	0.5014693
112	0x3ea750d6	0.3267886
113	0xbf118cb3	-0.56855315
114	0x3ec9cf6b	0.3941606
115	0xbda9790d	-0.08275042
116	0xbf1981c8	-0.59963655
117	0xbf66acb5	-0.9010728
118	0x3e369ff2	0.17834452
119	0xbe6b71ee	-0.2299268
120	0xbf911049	-1.1333095
121	0xbef25969	-0.4733384
122	0xbe201ca6	-0.15635929
123	0xbee03913	-0.43793544
124	0x3d1fb9fb	0.038995724
125	0x3d6417e2	0.05568684
126	0xbd684d7e	-0.056714527
127	0xbe81124b	-0.2520927
128	0xbf8757c3	-1.0573658
129	0xbe311e43	-0.172967
130	0xbf7a900f	-0.97876066
131	0x3e168c75	0.14702018
132	0x3ed0c677	0.40776417
133	0xbf624d95	-0.8839963
134	0xbeab44a0	-0.33450794
135	0xbf0a7797	-0.5408873
136	0xbff81c89	-1.9383708
137	0x3dba7b83	0.09105589
138	0x3fc9995f	1.574993
139	0xbed523ba	-0.4162882
140	0xbe1ab530	-0.1510818
141	0x3f0052d0	0.5012636
142	0x3e2ebea8	0.17064917
143	0x3f521052	0.8205615
144	0xbf4923a8	-0.7857003
145	0xc02644ce	-2.5979495
146	0xbcf4858a	-0.029848833
147	0x3e116efd	0.14202495
148	0x3fcac4d6	1.584132
149	0x3f424f6c	0.7590244
150	0xbed593cd	-0.41714326
151	0xbf0a8de6	-0.5412277
152	0x3ebc8592	0.36820656
153	0xbff9ee1a	-1.9525788
154	0xbf1b204a	-0.60596144
155	0xbe9ffb55	-0.3124644
156	0xbf8543a3	-1.0411266
157	0xbfd59abd	-1.6687847
158	0xbe504263	-0.20337825
159	0xbc8bb464	-0.01705379
160	0x4098286e	4.7549353
161	0xbfc94c7d	-1.5726467
162	0xbffb4536	-1.9630497
163	0xc08af6cb	-4.342626
164	0xbce54be9	-0.027990298
165	0x3f598c97	0.8498015
166	0xbf8e8e9c	-1.1137271
167	0x407f4944	3.9888468
168	0xbd997fcc	-0.074950784
169	0x40b7108b	5.7207694
170	0xbebf8ce2	-0.37412173
171	0xbf8afa22	-1.0857584
172	0xbee227bd	-0.44170943
173	0xbead1252	-0.3380304
174	0x3ede40d3	0.43408832
175	0xbf14063c	-0.5782201
176	0xbc11788a	-0.008878836
177	0x3e85672e	0.26055282
178	0xbf2ec5be	-0.6827048
179	0xbeaf63ac	-0.3425573
180	0xc03f26ea	-2.9867501
181	0x3e1cede1	0.15325119
182	0xbf9d066a	-1.2267582
183	0x3f1129d8	0.56704473
184	0xbfc3eab0	-1.5305996
185	0xc01991bf	-2.3995206
186	0xbd938492	-0.0720302
187	0xbeb2015f	-0.3476667
188	0xbfebd40a	-1.8424084
189	0x3dfe0af4	0.12404433
190	0x3e9957d7	0.2994983
191	0x3f9fe41a	1.2491486
192	0xbf893bba	-1.0721352
193	0xbe3af992	-0.18259266
194	0x3dae8e62	0.08523251
195	0xbfa24368	-1.2676821
196	0xbf77146f	-0.96515554
197	0x3f9bc66c	1.2169929
198	0x3fda8485	1.7071692
199	0x3e9b8cf2	0.3038097
200	0x3ef17377	0.47158405
201	0xbf334fad	-0.7004345
202	0xbe7500a5	-0.23926027
203	0xbffd47ad	-1.9787499
204	0xbd5c67b0	-0.05380982
205	0x3e27307b	0.16327088
206	0x3f321dc2	0.69576657
207	0x3e6b2e60	0.2296691
208	0x3eed0464	0.46292412
209	0xbd843740	-0.064558506
210	0xc00b033a	-2.172072
211	0xbd84c7c6	-0.06483416
212	0xbca7d1ec	-0.02048584
213	0x3f194159	0.5986534
214	0xc0a1ed90	-5.0602493
215	0x3d8439b2	0.06456317
216	0xbe921f98	-0.2853973
217	0xbf808aba	-1.0042336
218	0xbf796833	-0.9742462
219	0x3f2285fe	0.63485706
220	0xbde05809	-0.109542914
221	0xc0382569	-2.8772833
222	0xbc1b1605	-0.009465699
223	0xbf629cea	-0.8852068
224	0x3eeeef6c	0.4666704
225	0xbff7f311	-1.9371053
226	0xc06486e3	-3.5707328
227	0x3f80ab4d	1.0052277
228	0xbd1b7e65	-0.037962336
229	0x3f97e672	1.1867201
230	0xbf89b9a3	-1.0759777
231	0x4089e8c4	4.309664
232	0xbeea1d1f	-0.45725343
233	0xc031e2f4	-2.7794771
234	0x3e57788e	0.21042082
235	0x3fa11f42	1.2587664
236	0xbeb1fdb2	-0.34763867
237	0xbe59931c	-0.21247524
238	0xbfd4ef80	-1.663559
239	0xc077ab35	-3.8698246
240	0x3fe39daf	1.7782496
241	0xbed99da8	-0.42503095
242	0x407c7a2b	3.9449565
243	0x3d0b90ab	0.034073513
244	0x3e84db4a	0.25948554
245	0xbec2233d	-0.3791751
246	0xbe279fdf	-0.1636958
247	0x3ec60bf3	0.38680992
248	0xc004be8e	-2.0741305
249	0xbdc2e0e1	-0.095155485
250	0xbcca0b46	-0.024663579
251	0x3ed9cf92	0.42541176
252	0x3e1d41e1	0.15357162
253	0x3e6a0ba7	0.22856008
254	0xbf14cac2	-0.58121884
255	0xbfdcae64	-1.724072

features.1.linear.bias f4 [128]
0	0xbeffdd1b	-0.49973378
1	0x3f2f5ef5	0.6850427
2	0x3eafa3f3	0.3430477
3	0x3f1777b1	0.5916701
4	0xbeb9a583	-0.36259088
5	0x3f2705d2	0.65243256
6	0x3f470d87	0.77755016
7	0xbea62014	-0.3244635
8	0xbeac916c	-0.33704698
9	0xbe1e65c0	-0.15468502
10	0x3b2ecd8b	0.0026672806
11	0xbe75e5dd	-0.24013467
12	0xbdde0d16	-0.1084234
13	0x3f37d65b	0.71811455
14	0xbdf53a11	-0.11973966
15	0xbe4f1f3b	-0.20226757
16	0xbe0ea00e	-0.13928244
17	0x3f576a57	0.84146637
18	0xbcc4d1de	-0.024025854
19	0x3f06321f	0.5242023
20	0xbe521b96	-0.20518336
21	0x3f1ad31a	0.60478365
22	0x3f62ecfa	0.8864285
23	0xbf1f375f	-0.62193865
24	0xbee504f2	-0.44730335
25	0x3f16ad0f	0.58857816
26	0xbdb7e98c	-0.089800924
27	0xbea4a2fc	-0.32155597
28	0xbf58cec3	-0.84690493
29	0x3dd58c74	0.1042718
30	0xbe69a6e9	-0.22817577
31	0xbef1d861	-0.47235397
32	0xbe1c27c8	-0.1524955
33	0xbe44c43e	-0.19215485
34	0xbe80ab79	-0.25130823
35	0xbd9e68e5	-0.07734851
36	0xbe610345	-0.21973903
37	0xbf095dca	-0.53658736
38	0xbe24c8eb	-0.16092269
39	0xbeb50c05	-0.35360733
40	0xbe82284b	-0.25421366
41	0xbeab9e5d	-0.3351926
42	0x3f0b99f5	0.54531795
43	0xbdbcfea7	-0.092282586
44	0xbe6cf347	-0.23139678
45	0xbf2ab9db	-0.6668984
46	0x3f75c1c2	0.95998776
47	0x3d6d833b	0.05798648
48	0x3f601628	0.8753381
49	0xbf652868	-0.8951478
50	0x3f8061bf	1.002983
51	0xbf1388bb	-0.5763051
52	0x3ead4e85	0.33848968
53	0xbf1a8f43	-0.6037485
54	0xbd4d1468	-0.05006829
55	0x3f5498c9	0.8304563
56	0xbf0fb5ef	-0.56136984
57	0x3f3152a6	0.69266737
58	0xbde45051	-0.11148132
59	0xbea9fe6e	-0.33201927
60	0xbe159e16	-0.14611086
61	0xbdca3916	-0.098741695
62	0x3f3e1f3f	0.7426643
63	0x3f6398dc	0.8890512
64	0xbe76f4fb	-0.2411689
65	0xbe7ca7ce	-0.24673387
66	0xbe701cb4	-0.2344845
67	0xbd9f6c7f	-0.07784366
68	0x3d1cbfd7	0.03826889
69	0xbe196c1f	-0.14982651
70	0x3e83ed21	0.25766852
71	0x3b857cf5	0.004073734
72	0xbde2f894	-0.11082569
73	0xbf028177	-0.509788
74	0xbf0b835c	-0.54497313
75	0xbdf8fa12	-0.12157072
76	0xbd9f66ff	-0.07783317
77	0x3e745c4a	0.2386333
78	0xbe2f6316	-0.17127642
79	0xbe98315d	-0.2972516
80	0x3f02bc3e	0.51068485
81	0xbf1c9db5	-0.6117814
82	0x3e0ec154	0.13940936
83	0xbef678b4	-0.48138964
84	0xbe813c0b	-0.25241122
85	0x3f7e99d4	0.99453473
86	0x3c8e7e31	0.017394157
87	0x3e8d275e	0.27569097
88	0xbe0511ff	-0.12995146
89	0xbec2aea2	-0.3802386
90	0xbe063c35	-0.13108905
91	0xbed76f3f	-0.42077062
92	0x3e8b6ae7	0.27229998
93	0x3f81bf01	1.0136415
94	0x3b13d0aa	0.0022554793
95	0xbf23d6ac	-0.6399944
96	0xbdb90d2b	-0.09035715
97	0xbda5ba57	-0.08092182
98	0xbe484c52	-0.19560364
99	0x3f167254	0.587682
100	0x3f4abeda	0.79197466
101	0xbf1ade3d	-0.6049536
102	0xbea24c62	-0.316989
103	0xbe828e46	-0.2549917
104	0xbcae2c03	-0.02126122
105	0xbde748ee	-0.11293207
106	0xbe8d323e	-0.27577394
107	0x3f046a9e	0.51725185
108	0x3f6ce9e8	0.9254441
109	0xbe68af61	-0.22723152
110	0xbddb6bd6	-0.107139274
111	0xbe162ef0	-0.14666343
112	0x3f3be917	0.7340254
113	0x3e00260e	0.12514517
114	0xbf1e0091	-0.61719614
115	0xbd987944	-0.074450046
116	0xbecfc476	-0.40579575
117	0xbece8db6	-0.40342492
118	0xbdda5f21	-0.10662676
119	0xbde2843f	-0.1106038
120	0x3e97f0f5	0.29676023
121	0xbf0ccdf8	-0.55001783
122	0xbe891c2e	-0.26779312
123	0xbe8286e9	-0.25493553
124	0xbdb4b4db	-0.08823558
125	0x3e88b19d	0.26698008
126	0x3f995fee	1.19824
127	0x3ec7c5a3	0.39017972

head.weight f4 [1, 128]
0	0x3d78740a	0.06065754
1	0x3e91d5b2	0.2848335
2	0x3ebb3b93	0.3656889
3	0x3f36f5dd	0.7146891
4	0x3c5374eb	0.012906293
5	0x3f0245a2	0.508875
6	0x3ef24ff8	0.47326636
7	0x3d35a242	0.044344194
8	0x3c8b550e	0.01700833
9	0xbc3d5c3e	-0.011557637
10	0xbf36b7ac	-0.7137401
11	0xbe5d8189	-0.21631445
12	0x3d77f1ff	0.06053352
13	0x3e8070eb	0.2508615
14	0xbc4d594b	-0.012533496
15	0x3d344871	0.044014398
16	0xbba85019	-0.0051365015
17	0x3e535ff7	0.20642076
18	0x3ef23fb2	0.4731422
19	0x3e993a95	0.29927507
20	0x3d993dc3	0.07482483
21	0x3f81e87b	1.0149072
22	0x3eb79d96	0.35862416
23	0xbcda46ab	-0.026645025
24	0xbd75c56b	-0.060002726
25	0x3ed162ba	0.40895635
26	0x3dd02d3d	0.101648785
27	0x3bce71ee	0.0063002026
28	0xbf827272	-1.0191176
29	0xbe859040	-0.26086617
30	0xbe999dbb	-0.3000315
31	0xbda3d8d4	-0.08000341
32	0xbe28e92d	-0.164952
33	0x3d280985	0.041024704
34	0xbba584fc	-0.0050512534
35	0x3d978aa7	0.07399493
36	0xbd9b0c6f	-0.07570731
37	0xbd4c7c14	-0.049923018
38	0x3d98c244	0.07458928
39	0x3e842d8d	0.25816002
40	0x3d72ed4d	0.05930834
41	0xbe8bb8ce	-0.27289432
42	0x3f5a94b1	0.85383135
43	0x3dc4f978	0.09617895
44	0x3e2451ac	0.1604678
45	0xbc07d162	-0.008289667
46	0x3ebeeeb0	0.3729148
47	0x3e719948	0.23593628
48	0x3e956b6e	0.29183525
49	0xbf1e3574	-0.61800313
50	0x3efa8459	0.48929098
51	0xbf8aacf7	-1.0834035
52	0x3e9be5bd	0.30448714
53	0xbe25727d	-0.16156955
54	0x3c1a597d	0.00942075
55	0x3f582217	0.84427017
56	0x3da27673	0.07932749
57	0x3f04eb58	0.51921606
58	0xbca718c4	-0.020397551
59	0xbc02e734	-0.007989693
60	0x3d5f34ca	0.054493703
61	0xbc9455af	-0.018107263
62	0x3f84fec9	1.0390254
63	0x3f58b092	0.84644425
64	0xbe3aefdb	-0.1825556
65	0x3e25d4a5	0.16194399
66	0xbdbcafbc	-0.09213206
67	0x3d2468c9	0.040138993
68	0xbd9e5734	-0.077314764
69	0xbd2b157d	-0.04176854
70	0x3f945809	1.1589366
71	0x3ebcbb9a	0.3686188
72	0xbd56e501	-0.05246449
73	0x3ddc7fcc	0.10766563
74	0x3cf4f124	0.029900141
75	0xba7be7b5	-0.0009609417
76	0xbd37090a	-0.044686355
77	0xbdf03c72	-0.11730279
78	0xbe4a74b6	-0.19771084
79	0x3c06a0e7	0.008217073
80	0x3cf61bb7	0.030042512
81	0x3e01546e	0.12629864
82	0x3e3f53f6	0.18684372
83	0xbe8e4d84	-0.27793515
84	0xbe06592c	-0.13119954
85	0x3eb9a01c	0.36254966
86	0xbb4f9663	-0.003167533
87	0x3f59a68b	0.8501975
88	0xbe92ed36	-0.28696603
89	0xbed0fd86	-0.40818423
90	0xbc7ed683	-0.015554073
91	0xbddc15be	-0.107463345
92	0x401e5bec	2.4743605
93	0x3eedd8ae	0.46454376
94	0x3d447d37	0.047970977
95	0x3e327fb1	0.17431523
96	0xbc109082	-0.008823516
97	0x3c7bd038	0.015369467
98	0xbdca0d90	-0.09865868
99	0x3f85abb3	1.0443023
100	0x3f5b8455	0.857488
101	0xbdc70d9a	-0.09719391
102	0xbe9211e8	-0.28529286
103	0x3c92bd2b	0.017912468
104	0xbe1f1749	-0.15536226
105	0xbea6b5eb	-0.32560667
106	0x3da5d600	0.08097458
107	0x3e8d5726	0.2760555
108	0x3ef81447	0.4845297
109	0xbd56ffd0	-0.052490056
110	0xbd84fa77	-0.06493085
111	0xbd92d676	-0.071698114
112	0x3e8553f7	0.26040623
113	0xbfb13e36	-1.384711
114	0xba903898	-0.0011003194
115	0xbc95f526	-0.018305372
116	0xbe835a61	-0.2565489
117	0xbeb62f54	-0.35582983
118	0xbd4bf33a	-0.049792506
119	0xbeabe4e8	-0.3357308
120	0x3eed09a9	0.46296433
121	0xbe003af6	-0.12522492
122	0x3c713ce8	0.014723994
123	0x3deb4935	0.114885725
124	0x3c11cc49	0.008898803
125	0xbe115fb6	-0.14196667
126	0x3eecea77	0.46272632
127	0x3e88779e	0.2665376
